weights/mininet_v1_cifar10_weights.pth (torch, 321469 bytes, 47 tensors)

block1.0.weight f4 [64, 3, 7, 7]
0.07827556 0.1494934 0.16611257 0.1662664 0.17675541 0.1658838 0.1410116 0.17545809
0.24407518 0.2500024 0.27496737 0.27452016 0.2524457 0.22198626 0.12331326 0.16440788
0.14921932 0.16320275 0.16300678 0.16191031 0.140613 0.01666639 0.03348307 0.029558606
0.022261893 0.015514806 0.019502915 0.024349835 -0.10461029 -0.120651335 -0.1196879 -0.11904313
-0.113551974 -0.11181393 -0.11652679 -0.1474719 -0.18657684 -0.18271959 -0.20323615 -0.21694086
-0.20213167 -0.18301736 -0.20728713 -0.27117863 -0.28157485 -0.3016762 -0.2871118 -0.24883309
-0.22605371 0.16417705 0.24814488 0.26538348 0.2681049 0.27357727 0.25692868 0.22483112
0.242256 0.32158428 0.32346386 0.35171965 0.34568846 0.31805322 0.28127956 0.15824775
0.2025285 0.18363634 0.1879783 0.19483724 0.18966404 0.1696366 0.022182746 0.019841185
0.0045306534 0.0019733803 -0.0030311088 -0.0054135327 0.0024939238 -0.1254696 -0.18072808 -0.18957531
-0.187138 -0.17603129 -0.17623073 -0.17415395 -0.18183061 -0.26246512 -0.2608379 -0.2846516
-0.29752603 -0.2760005 -0.24195825 -0.24013755 -0.33787158 -0.368568 -0.3803921 -0.36870033
-0.31372124 -0.2729958 0.043789912 0.112597026 0.12304333 0.11439362 0.117728986 0.11247585
0.09286019 0.13078445 0.2025593 0.18976347 0.21417165 0.20729822 0.19033323 0.16014253
0.08767348 0.13088924 0.10913467 0.108055905 0.11802263 0.108539045 0.091807775 0.0012817011
0.011397342 0.012393637 0.015611824 0.0039612143 -0.012295702 -0.006248486 -0.08016599 -0.12586156
-0.11267448 -0.10676436 -0.10375709 -0.104345806 -0.110523984 -0.07589334 -0.13055453 -0.12620533
-0.14286149 -0.15039122 -0.14016147 -0.11601506 -0.113382556 -0.1775645 -0.19754246 -0.20837216
-0.19401997 -0.16117597 -0.12721285 0.014190562 0.02084607 0.020331142 0.013883048 -0.009099572
-0.014351531 -0.002758845 0.005429877 -0.0024950672 -0.005610696 -0.03338737 -0.04227729 -0.00061752263
-0.0016582923 -0.021287723 -0.048074055 -0.06101528 0.0032573703 0.077538915 0.080279015 0.052813865
0.04225951 0.09326615 0.20602709 0.30376318 0.25733924 0.12921378 -0.017457362 0.009776555
0.019108474 -0.015813535 -0.25690785 -0.446613 -0.34646204 -0.15702088 -0.027226217 -0.14128904
-0.2381921 -0.202227 0.020698734 0.13011509 0.07297395 -0.023009121 0.038789872 0.13626888
0.16559607 0.098952055 0.037284605 0.013394526 -0.007719371 0.0021168136 -0.0015517363 -0.003101216
-0.0127652725 -0.005638389 0.018512454 -0.0042460957 0.00063332875 -0.0276415 -0.04464072 -0.04637451
0.007285627 0.02786724 -0.017377624 -0.04533325 -0.04848094 0.05398117 0.14804593 0.13966532
0.084136315 0.071045816 0.14745913 0.30124697 0.44506636 0.3326913 0.14193471 -0.04173491
0.028082544 0.04587376 -0.021669589 -0.35459775 -0.6103035 -0.47836262 -0.20833282 -0.052253228
-0.20378807 -0.34409222 -0.30243388 -0.0162032 0.16813959 0.091656744 -0.02458733 0.023829961
0.14673938 0.20511772 0.1515314 0.07521742 0.010261333 -0.007885862 0.006969692 -0.003929723
-0.0036841603 0.012928484 -0.010918861 -0.010604732 0.005710519 0.020494582 0.0030640012 -0.0072774338
00000000: f04e a03d cc14 193e 6a19 2a3e bd41 2a3e
00000010: 5fff 343e 71dd 293e 5865 103e 49ab 333e
00000020: d8ee 793e 5100 803e 86c8 8c3e e88d 8c3e
00000030: 9040 813e 5e50 633e aa8b fc3d 8a5a 283e
00000040: f3cc 183e 9f1e 273e 40eb 263e d1cb 253e
00000050: dbfc 0f3e f487 883c 8b25 093d e424 f23c
00000060: 935e b63c d031 7e3c 94c4 9f3c 4e79 c73c
00000070: eb3d d6bd 0c18 f7bd ee1e f5bd e2cc f3bd
00000080: f08d e8bd b4fe e4bd 99a5 eebd e002 17be
00000090: 000e 3fbe d81a 3bbe 231d 50be bf25 5ebe
000000a0: 9bfb 4ebe e768 3bbe 1443 54be edd7 8abe
000000b0: 942a 90be 4e75 9abe 5100 93be 1ace 7ebe
000000c0: a07a 67be 071e 283e b119 7e3e 58e0 873e
000000d0: 0c45 893e 5212 8c3e 288c 833e 213a 663e
000000e0: f511 783e b2a6 a43e 0e9d a53e 9914 b43e
000000f0: 14fe b03e dfd7 a23e e003 903e b30b 223e
00000100: a263 4f3e 2a0b 3c3e 627d 403e 6a83 473e
00000110: 4a37 423e 38b5 2d3e 97b8 b53c fb89 a23c
00000120: e075 943b d453 013b 91a5 46bb 0164 b1bb
00000130: 1971 233b 1a7b 00be c810 39be 0820 42be
00000140: 1ba1 3fbe 8c41 34be d475 34be 6a55 32be
00000150: ce31 3abe d461 86be 8c8c 85be dbbd 91be
00000160: 5555 98be f04f 8dbe e7c3 77be 9ee6 75be
00000170: 81fd acbe f2b4 bcbe c1c2 c2be 4ac6 bcbe
00000180: 12a0 a0be 1bc6 8bbe 0d5d 333d 4599 e63d
00000190: 24fe fb3d 3447 ea3d e51b f13d bd59 e63d
000001a0: 7c2d be3d 5cec 053e b56b 4f3e 5b51 423e
000001b0: d04f 5b3e fc45 543e b7e6 423e 67fc 233e
000001c0: 278e b33d d407 063e ff81 df3d 6a4c dd3d
000001d0: d9b5 f13d b849 de3d b705 bc3d c1fe a73a
000001e0: ebbb 3a3c ae0e 4b3c bcc8 7f3c 13cd 813b
000001f0: e973 49bc 1ac0 ccbb 112e a4bd dae1 00be
00000200: e1c1 e6bd 46a7 dabd 997e d4bd 41b3 d5bd
00000210: 665a e2bd f86d 9bbd 16b0 05be f83b 01be
00000220: 484a 12be 2800 1abe 7d86 0fbe 4e99 edbd
00000230: 1d35 e8bd 78d3 35be 9248 4abe 835f 55be
00000240: 2cad 46be 500b 25be 1644 02be 887f 683c
00000250: 61c5 aa3c 7f8d a63c b975 633c 5f16 15bc
00000260: af22 6bbc bdcd 34bb 1ced b13b 4884 23bb
00000270: eed9 b7bb 32c1 08bd f42a 2dbd 3ee1 21ba
00000280: 0e5b d9ba 9763 aebc 4de9 44bd 29eb 79bd
00000290: 9b79 553b b9cc 9e3d 5369 a43d 5a53 583d
000002a0: 4f18 2d3d 5302 bf3d c4f8 523e d986 9b3e
000002b0: f8c1 833e 9e50 043e be02 8fbc d82d 203c
000002c0: 6089 9c3c 638b 81bc 6d89 83be 76aa e4be
000002d0: 7963 b1be 15ca 20be 8409 dfbc 13ae 10be
000002e0: a1e8 73be 9814 4fbe 6490 a93c e43c 053e
000002f0: 5e73 953d a07d bcbc 21e2 1e3d 128a 0b3e
00000300: 0492 293e 60a7 ca3d beb7 183d b774 5b3c
00000310: c7f2 fcbb 3dba 0a3b a163 cbba c53d 4bbb
00000320: 6f25 51bc 3cc2 b8bb 6ea7 973c d522 8bbb
00000330: f905 263a 6d70 e2bc 30d9 36bd 33f3 3dbd
00000340: 45bc ee3b d749 e43c 855b 8ebc 5caf 39bd
00000350: f393 46bd 5c1b 5d3d 5a99 173e 6d04 0f3e
00000360: a94f ac3d 7880 913d 87ff 163e 0b3d 9a3e
00000370: bddf e33e 8456 aa3e 5557 113e 3af2 2abd
00000380: 5d0d e63c 20e6 3b3d 6c84 b1bc d68d b5be
00000390: da3c 1cbf f2eb f4be 3355 55be 7b07 56bd
000003a0: d2ad 50be db2c b0be 9dd8 9abe 93bc 84bc
000003b0: c92c 2c3e 88b6 bb3d 5e6b c9bc 0d37 c33c
000003c0: d942 163e 610a 523e 0c2b 1b3e 970b 9a3d
000003d0: 261f 283c b433 01bc 0462 e43b e8c4 80bb
000003e0: f471 71bb fed1 533c 06e5 32bc 78bf 2dbc
000003f0: 4e1f bb3b 41e4 a73c 69cd 483b 8a77 eebb

block1.1.weight f4 [64]
0.023416406 0.022803064 0.0244258 0.023757704 -0.04108645 0.048820313 0.16444868 -0.020019464
-4.345818e-09 0.025325032 0.03730193 0.1652434 -0.019868992 0.13128442 0.05721073 2.339851e-08
0.018768437 -0.1485152 0.01548755 0.019133633 0.017695392 -0.015465808 0.023372754 -0.27411044
-0.021181887 0.093615025 0.13568814 -0.020260122 -0.020155853 0.019265592 0.22774825 -0.19634622
0.046806455 -0.13007785 0.027168266 -0.023197511 0.018975507 -0.018243896 0.25165024 0.016805135
0.018075475 -0.27008498 -0.10888251 0.019553391 0.16577762 0.017742975 0.02211887 0.047337394
-0.020899827 0.021206198 -0.048654042 0.017948253 0.023852095 -0.02260661 0.018838095 -0.049182042
0.022794127 0.019440541 0.02519575 0.13313061 0.019131351 0.024305552 0.02270303 0.13352399
00000000: c3d3 bf3c 7ecd ba3c 9e18 c83c 849f c23c
00000010: 444a 28bd cff7 473d 3c65 283e dcff a3bc
00000020: 3852 95b1 7176 cf3c e9c9 183d 9135 293e
00000030: 4cc4 a2bc 6c6f 063e cc55 6a3d defd c832
00000040: 44c0 993c 5e14 18be 7ebf 7d3c 23be 9c3c
00000050: edf5 903c 4d64 7dbc 3878 bf3c 3458 8cbe
00000060: a385 adbc 3cb9 bf3d d5f1 0a3e 8ef8 a5bc
00000070: e31d a5bc e0d2 9d3c d636 693e fc0e 49be
00000080: 20b8 3f3d 2133 05be fc8f de3c b508 bebc
00000090: 8672 9b3c 3974 95bc 4dd8 803e ecaa 893c
000000a0: 0513 943c 9448 8abe cbfd debd 6f2e a03c
000000b0: 9cc1 293e b759 913c a232 b53c dbe4 413d
000000c0: 1d36 abbc 9fb8 ad3c 7649 47bd 3708 933c
000000d0: 7865 c33c 7f31 b9bc 5952 9a3c 1c73 49bd
000000e0: c0ba ba3c c541 9f3c 5167 ce3c 6453 083e
000000f0: 5ab9 9c3c 701c c73c b4fb b93c 83ba 083e

block1.1.bias f4 [64]
0.095523044 0.040079333 0.033927605 0.083869234 0.073823966 0.05840751 0.030975727 0.03230012
-1.3154273e-07 0.06930523 0.07084018 0.06597206 0.04153458 0.11991025 0.17378737 -1.2387443e-07
0.041836545 0.2658662 0.19325005 0.03784543 0.042895064 0.038255133 0.02733769 0.21047813
0.03442391 0.14846098 0.11354922 0.037683364 0.04862154 0.047004793 -0.09106442 0.20047608
0.17355824 0.12352456 0.08924025 0.030928627 0.025795562 0.03313162 0.19534174 0.029050265
0.033600952 0.21037588 0.13224338 0.03910232 0.06890155 0.058267035 0.037378605 0.1277417
0.06736691 0.059019774 0.044691265 0.059200466 0.031689502 0.047046993 0.031390443 0.12914278
0.037229545 0.056345258 0.04210196 0.12280546 0.03187991 0.031424552 0.03832209 0.1797138
00000000: 96a1 c33d 3a2a 243d acf7 0a3d a2c3 ab3d
00000010: 0531 973d b73c 6f3d cfc0 fd3c 214d 043d
00000020: 313e 0db4 e7ef 8d3d a814 913d 5c1c 873d
00000030: 2a20 2a3d 8193 f53d 51f5 313e 5802 05b4
00000040: cc5c 2b3d 9d1f 883e 57e3 453e cf03 1b3d
00000050: bcb2 2f3d 6ab1 1c3d 4bf3 df3c 9487 573e
00000060: 1600 0d3d 2806 183e 7e8c e83d df59 1a3d
00000070: 6127 473d 1988 403d fc7f babd 9a49 4d3e
00000080: 40b9 313e 72fa fc3d 98c3 b63d 085e fd3c
00000090: 3751 d33c 06b5 073d aa07 483e d2fa ed3c
000000a0: 27a1 093d c66c 573e cf6a 073e c129 203d
000000b0: 411c 8d3d 6aa9 6e3d 4f1a 193d b8ce 023e
000000c0: aaf7 893d b8be 713d 300e 373d 307c 723d
000000d0: dacc 013d 59b4 403d 4493 003d 013e 043e
000000e0: 027e 183d 49ca 663d 1b73 2c3d 6e81 fb3d
000000f0: 8294 023d 08b7 003d a0f7 1c3d e506 383e

block1.1.running_mean f4 [64]
0.09346262 0.0024674716 -0.018510323 -0.11674396 -0.030601727 0.008480278 0.36827058 -0.009606267
1.3132093e-07 0.14126842 -0.032905757 -0.26982918 -0.06284768 0.2693956 -0.22657062 -4.098877e-08
0.05190586 0.043423485 0.038884006 0.005922876 0.031729475 -0.00047695433 0.032597914 0.27720165
0.07401936 -0.011160488 -0.42773277 0.026716592 -0.000614094 0.005953767 -0.1582059 -0.28212637
0.06374011 -0.023274263 -0.11055061 0.016546318 -0.00825399 0.013211966 0.00254581 0.034608796
-0.008080301 0.46790427 0.02459154 0.021359326 -0.06422794 -0.038884547 -0.047131605 -0.0018526851
-0.0198151 0.10542826 0.023756277 -0.027609762 0.104102805 -0.011488049 -0.0038027647 0.03012676
-0.07298767 0.053805456 0.05969981 0.031225879 -0.06024698 0.03213754 -0.08373083 0.07855282
00000000: 5569 bf3d 4eb5 213b f6a2 97bc 7517 efbd
00000010: 79b0 fabc ddf0 0a3c f68d bc3e 9b63 1dbc
00000020: 3901 0d34 aba8 103e 30c8 06bd 0d27 8abe
00000030: 49b6 80bd 38ee 893e 2102 68be a10b 30b3
00000040: 3d9b 543d d3dc 313d d644 1f3d af14 c23b
00000050: c4f6 013d ba0f fab9 6485 053d 60ed 8d3e
00000060: 7697 973d 7bda 36bc caff dabe c1dc da3c
00000070: 27fb 20ba d117 c33b ba00 22be de72 90be
00000080: 2d8a 823d aba9 bebc 5c68 e2bd 258c 873c
00000090: be3b 07bc 0077 583c 9bd7 263b f4c1 0d3d
000000a0: 3d63 04bc 2691 ef3e 3374 c93c c1f9 ae3c
000000b0: f089 83bd 6745 1fbd 120d 41bd ccd5 f2ba
000000c0: 4753 a2bc c6ea d73d 869c c23c de2d e2bc
000000d0: da33 d53d 5f38 3cbc ce37 79bb 65cc f63c
000000e0: 8f7a 95bd 1c63 5c3d ca87 743d 6acd ff3c
000000f0: 8ac5 76bd a7a2 033d 127b abbd 4de0 a03d

block1.1.running_var f4 [64]
75.18045 1.7639629 0.98401207 4.40962 1.328692 48.029884 3.3343785 1.0019807
9.399778e-13 3.2797406 48.520493 3.0306222 2.5034132 2.2044232 2.1188614 1.0455237e-12
1.2233809 2.537494 0.9924907 1.137331 1.1463592 0.5664325 8.948359 4.187147
2.1865814 0.78844434 4.837168 3.0602646 0.81182396 0.33302647 5.0875883 2.191833
1.3170767 2.0088978 67.86612 2.1219523 4.152422 1.359153 1.7218862 1.9133314
1.1946883 5.1534295 2.5990539 0.75898093 2.1729198 0.99331707 5.7297015 0.13308509
3.1028523 4.646344 3.3810463 1.534089 8.1265745 2.15458 1.3821292 0.6219364
4.5245667 1.2205391 7.3583193 1.6219587 5.027507 7.698198 5.3747215 2.3305998
00000000: 645c 9642 89c9 e13f 37e8 7b3f 9b1b 8d40
00000010: 9412 aa3f 9a1e 4042 7566 5540 e740 803f
00000020: 454a 842b 45e7 5140 fc14 4242 b7f5 4140
00000030: ec37 2040 4515 0d40 6d9b 0740 f624 932b
00000040: bf97 9c3f 4d66 2240 df13 7e3f 1094 913f
00000050: e6bb 923f b801 113f 7a2c 0f41 1cfd 8540
00000060: f3f0 0b40 7dd7 493f 15ca 9a40 60db 4340
00000070: b2d3 4f3f 7282 aa3e 86cd a240 fe46 0c40
00000080: f895 a83f c891 0040 74bb 8742 11ce 0740
00000090: a4e0 8440 baf8 ad3f c466 dc3f 0be8 f43f
000000a0: 8ceb 983f e5e8 a440 e656 2640 934c 423f
000000b0: 1e11 0b40 074a 7e3f b759 b740 7547 083e
000000c0: 2295 4640 daae 9440 1063 5840 075d c43f
000000d0: 7306 0241 a4e4 0940 9ce9 b03f 3937 1f3f
000000e0: 40c9 9040 a03a 9c3f 5a77 eb40 589c cf3f
000000f0: 56e1 a040 a357 f640 b8fd ab40 8c28 1540

block2.conv.weight f4 [64, 64, 3, 3]
-0.068127215 -0.071148545 -0.068826884 -0.08174894 -0.09142603 -0.13254854 0.046024173 -0.098512895
-0.06333693 0.068569355 -0.019677257 -0.07300931 -0.13587736 -0.060739458 -0.05562037 -0.09065647
-0.123694986 0.026307428 -0.12342797 0.016758384 0.007645089 -0.025751695 0.048301283 -0.016916564
-0.090790994 0.007490404 -0.12776814 -0.029398602 0.060565665 0.0024100605 0.04274087 -0.07781165
-0.07882813 -0.043246813 -0.07214153 -0.1269557 0.018201536 0.0024959608 -0.04327525 -0.09660835
-0.17212519 -0.14975576 0.03849063 -0.17863515 -0.056996588 -0.21449946 -0.083929494 -0.08735907
-0.15905243 -0.07018887 -0.15906571 0.020577734 -0.03671334 -0.1368537 0.03303705 -0.016770191
-0.033836532 0.007186941 -0.0065381103 -0.005928329 -0.057408437 -0.046511292 -0.008064186 -0.14066239
-0.10095323 0.06924922 0.03281657 -0.09274687 0.18785916 -0.08487099 0.011474411 0.00817209
0.00706963 0.033175867 -0.033270836 -0.016408384 -0.0064279763 -0.021257833 -0.021293592 0.018493995
0.0023422893 -0.04988701 0.016668279 0.0063954745 -0.012170956 0.03995102 0.10256826 0.005320861
0.11111283 0.05286618 -0.00019446498 -0.00035683028 0.020247059 0.032779504 -0.039997444 -0.084668584
-0.0031744519 -0.055312492 0.0093265185 0.051133968 -0.019865187 -0.053366568 0.10843045 0.03200481
-0.070869595 0.09059624 0.039465435 -0.026423959 -0.07879974 -0.019941382 0.059837952 -0.026871445
-0.022338064 -0.01724051 0.029556874 0.021088695 -0.023126202 -0.052998703 0.020686787 -0.021093775
0.037438206 -0.0055398885 0.021181868 -0.0056780446 0.03489708 0.004583176 -0.03515988 0.082035035
0.039855625 -0.0154321715 -0.003378229 0.023530886 0.011603079 0.05666151 0.024475168 0.021425923
-0.021820923 0.032031417 0.013229202 0.0123524275 0.006632281 -0.013323709 -0.009277709 -0.003511286
-0.001477798 0.047625046 0.09748531 0.0077123283 0.010698175 0.0834316 0.11338673 0.10959934
0.107274376 -0.051924706 0.026737727 0.02061632 0.009148188 0.029808188 0.0037038713 0.013202916
-0.049895376 -0.014622605 -0.07029853 -0.0055746413 0.012907511 -0.018206043 0.040810533 -0.024733942
-0.030883126 0.015729275 -0.0031608655 0.08059848 -0.044610992 0.09334083 0.056451056 0.01877223
-0.01779083 -0.14104755 -0.08222278 -0.16356337 -0.04239272 -0.052888673 -0.014394527 -0.067949355
0.024892788 0.03268702 -0.082089834 -0.03855353 0.0725783 -0.056043554 -0.13545188 -0.009730708
-0.04568905 0.06874955 0.008317733 0.02141527 0.036974844 0.11236115 -0.07867238 0.015349027
0.06295926 0.09662177 0.083639495 0.13364632 0.11839237 0.116345085 0.15314089 -0.011049084
0.00519921 -0.013556002 0.0100556575 -0.047601957 0.033501536 0.05626326 -0.013339177 0.016565554
-0.16632274 -0.033975653 -0.0691136 0.049841505 0.08945805 0.17615683 -0.06490191 0.04438453
0.09623363 0.023009595 0.13031572 0.14123835 0.14932282 0.014945638 0.00056640134 0.020316156
0.0132576255 -0.031856023 -0.00897465 0.0014722716 -0.014944888 -0.03310389 -0.015854841 0.0053549223
-0.00035878274 -0.04393398 -0.06517014 -0.007876864 -0.028501984 0.023397619 -0.043618068 -0.043711167
-0.021362478 -0.1365438 -0.104261346 -0.17116497 -0.034969527 0.0070441863 0.020463057 -0.062702246
00000000: 4886 8bbd 54b6 91bd 1cf5 8cbd fd6b a7bd
00000010: 923d bbbd ceba 07be d883 3c3d 21c1 c9bd
00000020: cbb6 81bd 176e 8c3d 3332 a1bc e885 95bd
00000030: 6f23 0bbe f0c9 78bd 2fd2 63bd 19aa b9bd
00000040: cc53 fdbd ad82 d73c cec7 fcbd e148 893c
00000050: a883 fa3b 38f5 d2bc 91d7 453d 9b94 8abc
00000060: a1f0 b9bd 1072 f53b a7d5 02be 56d5 f0bc
00000070: b413 783d 1bf2 1d3b 0d11 2f3d b75b 9fbd
00000080: a570 a1bd 9223 31bd f0be 93bd ad00 02be
00000090: 631b 953c 4693 233b 6341 31bd 99da c5bd
000000a0: 9641 30be 9359 19be 5aa8 1d3d 22ec 36be
000000b0: 4175 69bd bfa5 5bbe 3ae3 abbd 50e9 b2bd
000000c0: a4de 22be 2fbf 8fbd 1fe2 22be a392 a83c
000000d0: ba60 16bd 6023 0cbe dc51 073d a461 89bc
000000e0: 2d98 0abd 6e80 eb3b a53d d6bb 6e42 c2bb
000000f0: 1c25 6bbd a082 3ebd a61f 04bc cd09 10be
00000100: 91c0 cebd 89d2 8d3d ab6a 063d 12f2 bdbd
00000110: 275e 403e d7d0 adbd 2bff 3b3c 3be4 053c
00000120: 5ba8 e73b 6be3 073d 0047 08bd e06a 86bc
00000130: c6a1 d2bb e824 aebc e66f aebc b880 973c
00000140: 1881 193b 5256 4cbd ea8b 883c 2191 d13b
00000150: b068 47bc aea3 233d 4f0f d23d 9e5a ae3b
00000160: 208f e33d 358a 583d 4ce9 4bb9 f314 bbb9
00000170: 29dd a53c cd43 063d 5cd4 23bd b966 adbd
00000180: 770a 50bb 5a8f 62bd 41ce 183c da71 513d
00000190: 51bc a2bc e796 5abd c910 de3d 7a17 033d
000001a0: 1424 91bd 858a b93d 82a6 213d 0f77 d8bc
000001b0: c261 a1bd 1c5c a3bc a418 753d 8121 dcbc
000001c0: 51fe b6bc f83b 8dbc 4221 f23c 33c2 ac3c
000001d0: 2973 bdbc 2b15 59bd 5677 a93c dacc acbc
000001e0: ce58 193d f487 b5bb 9985 ad3c e40e babb
000001f0: 3ef0 0e3d 782e 963b ce03 10bd fc01 a83d
00000200: a73f 233d 38d7 7cbc 4765 5dbb d8c3 c03c
00000210: d71a 3e3c e615 683d 2680 c83c 6b85 af3c
00000220: cbc1 b2bc 6033 033d 4bbf 583c d661 4a3c
00000230: 9b53 d93b b04b 5abc 8801 18bc 9b1d 66bb
00000240: acb2 c1ba 7b12 433d 61a6 c73d b3b7 fc3b
00000250: 6647 2f3c 30de aa3d 4d37 e83d 9e75 e03d
00000260: abb2 db3d 00af 54bd 1409 db3c 8fe3 a83c
00000270: 48e2 153c 4d30 f43c a6bc 723b 0b51 583c
00000280: 185f 4cbd a793 6fbc adf8 8fbd 7bab b6bb
00000290: 067a 533c d724 95bc f228 273d d69e cabc
000002a0: 9cfe fcbc aeda 803c 8626 4fbb d110 a53d
000002b0: 04ba 36bd 7a29 bf3d 3939 673d 38c8 993c
000002c0: 13be 91bc c56e 10be 6b64 a8bd 287d 27be
000002d0: fda3 2dbd cba1 58bd 06d7 6bbc 0829 8bbd
000002e0: f6eb cb3c d3e2 053d b71e a8bd 4eea 1dbd
000002f0: efa3 943d ed8d 65bd e6b3 0abe 8c6d 1fbc
00000300: 7124 3bbd 90cc 8c3d 1a47 083c 146f af3c
00000310: ef72 173d 9a1d e63d fc1e a1bd 7c7a 7b3c
00000320: c9f0 803d a2e1 c53d 2f4b ab3d 95da 083e
00000330: b377 f23d 5546 ee3d f7d0 1c3e 3807 35bc
00000340: 225e aa3b fe19 5ebc 7cc0 243c 45fa 42bd
00000350: e838 093d 4e74 663d 908c 5abc 7cb4 873c
00000360: 8250 2abe 0e2a 0bbd 6e8b 8dbd 9b26 4c3d
00000370: c835 b73d 7562 343e 4beb 84bd 8ecc 353d
00000380: 2316 c53d 9e7e bc3c 7c71 053e c9a0 103e
00000390: 15e8 183e 8dde 743c 8d7a 143a 116e a63c
000003a0: 8336 593c 767b 02bd 690a 13bc 3df9 c03a
000003b0: 67db 74bc f297 07bd 03e2 81bc 5878 af3b
000003c0: 011b bcb9 1ef4 33bd ec77 85bd f60d 01bc
000003d0: fe7c e9bc 5dac bf3c dca8 32bd 7b0a 33bd
000003e0: 5d00 afbc 23d2 0bbe f986 d5bd df45 2fbe
000003f0: 353c 0fbd ebd2 e63b 24a2 a73c 096a 80bd

block2.bn.weight f4 [64]
1.050815 1.0089382 1.0371706 0.9827724 1.0793145 1.026218 0.9559084 0.96735185
0.96682125 1.0556828 1.0332084 1.0367769 1.0031545 0.9752606 0.9526417 1.0363034
1.019872 0.97247076 1.0024617 0.96052885 0.9497391 1.0225122 1.0139401 1.0095525
1.0461856 1.0585378 1.1109062 0.9143309 0.98693085 0.9681185 1.0228013 0.9891291
0.9568862 0.9538415 1.0113366 0.97114015 1.0117021 1.0082135 1.0224974 0.962079
0.9718409 1.0062615 0.99660635 1.0164695 0.9739583 0.9796348 1.0671033 1.0001085
1.0161453 0.95840335 0.9624491 0.9516171 1.0408608 0.95537454 0.9522795 0.9998812
0.97840965 1.0726453 0.98425454 1.0331807 0.9738386 0.95596915 0.99252653 1.0569391
00000000: 1b81 863f e324 813f 02c2 843f f996 7b3f
00000010: fa26 8a3f 1d5b 833f 6ab6 743f 5fa4 773f
00000020: 9981 773f 9d20 873f 2c40 843f 1bb5 843f
00000030: 5e67 803f aeaa 793f 54e0 733f 97a5 843f
00000040: 2a8b 823f d8f3 783f aa50 803f 38e5 753f
00000050: 1a22 733f aee1 823f cac8 813f 0439 813f
00000060: 69e9 853f 2b7e 873f 2d32 8e3f 9711 6a3f
00000070: 80a7 7c3f 9dd6 773f 27eb 823f 9137 7d3f
00000080: 7ef6 743f f52e 743f 7a73 813f a49c 783f
00000090: 747f 813f 240d 813f 32e1 823f cf4a 763f
000000a0: 91ca 783f 2dcd 803f 9821 7f3f ac1b 823f
000000b0: 5555 793f 59c9 7a3f d796 883f 8e03 803f
000000c0: 0d11 823f ec59 753f 1063 763f 2e9d 733f
000000d0: ed3a 853f 6d93 743f 97c8 733f 37f8 7f3f
000000e0: 0e79 7a3f 714c 893f 1bf8 7b3f 443f 843f
000000f0: 7d4d 793f 65ba 743f 3816 7e3f c849 873f

block2.bn.bias f4 [64]
-0.14688055 -0.12384919 -0.022330364 -0.015007377 -0.073393226 7.92338e-05 -0.045013033 0.13281311
0.08421918 0.019506412 0.043162785 -0.12130457 -0.023835886 0.025738506 -0.1000577 -0.14661583
-0.08661097 -0.073587246 -0.15029839 0.015724134 -0.19071501 0.072561525 -0.13721846 -0.10657491
0.026426531 -0.024191722 -0.15785639 -0.06265857 0.095075324 0.023686267 0.05603041 -0.11127209
0.03553336 -0.07233241 -0.09168821 -0.037742272 -0.19234914 -0.026610974 -0.19838795 -0.023059778
-0.13529655 -0.12241168 -0.11984906 0.024074262 -0.16931404 0.02229233 -0.086111434 -0.04641084
-0.09705171 -0.11663146 -0.03924233 -0.006168417 -0.038160734 -0.027961737 -0.1964732 -0.060587462
-0.07870772 -0.2770389 -0.0469581 0.08179141 -0.07362164 -0.013861802 -0.04852953 0.011560679
00000000: db67 16be a5a4 fdbd 2bee b6bc 80e1 75bc
00000010: 304f 96bd 532a a638 965f 38bd 2900 083e
00000020: 1b7b ac3d e9cb 9f3c 76cb 303d 886e f8bd
00000030: 7a43 c3bc 8fd9 d23c 0deb ccbd 7622 16be
00000040: 1861 b1bd e9b4 96bd d2e7 19be e6cf 803c
00000050: cc4a 43be 239b 943d ff82 0cbe f243 dabd
00000060: 747c d83c b82d c6bc 1ba5 21be 2353 80bd
00000070: dab6 c23d b409 c23c 2580 653d 9fe2 e3bd
00000080: 6e8b 113d 0423 94bd 07c7 bbbd a497 1abd
00000090: 2cf7 44be 42ff d9bc 3626 4bbe dce7 bcbc
000000a0: 2e8b 0abe fab2 fabd 6d73 f5bd 6337 c53c
000000b0: a960 2dbe 689e b63c 315b b0bd 4b19 3ebd
000000c0: 0cc3 c6bd 7adc eebd 91bc 20bd 6f20 cabb
000000d0: 6e4e 1cbd 0310 e5bc 4530 49be 8f2a 78bd
000000e0: 8331 a1bd 0bd8 8dbe 2357 40bd 4182 a73d
000000f0: f1c6 96bd 9d1c 63bc e7c6 46bd 0169 3d3c

block2.bn.running_mean f4 [64]
-0.06689838 0.005473759 1.8315764e-06 -0.3847502 -0.34466937 -0.07133481 0.17268583 -0.0070393216
-0.20639127 0.039462082 0.14406374 0.30885953 0.20171976 -0.16423337 -0.19567096 0.13121971
-0.03392023 -0.35763985 0.06487828 -0.08477043 0.004958735 -0.119756855 -0.025645375 0.1648945
0.27565405 0.19415887 0.04715917 0.1156635 -0.047952224 0.19432274 -0.14472826 0.19978043
-0.16061813 0.015641533 -0.18349558 0.025176972 -0.2160918 0.04652294 0.11049819 0.08784984
-0.015567984 -0.116197236 -0.12623958 -0.21430811 0.06393704 -0.5938117 0.116785675 -0.07087649
-0.13749608 -0.2508147 0.07897143 -0.10427222 -0.17580181 0.015075625 -0.25849518 -0.16798176
0.18520264 -0.035947654 0.17349693 -0.09186032 0.2895237 -0.33309108 0.044577386 -0.0902162
00000000: 0502 89bd 385d b33b 7cd4 f535 fafd c4be
00000010: 8178 b0be fc17 92bd 8ed4 303e 1caa e6bb
00000020: 3c58 53be fea2 213d 7285 133e d622 9e3e
00000030: a08f 4e3e cb2c 28be f85d 48be 765e 063e
00000040: f0ef 0abd 921c b7be e7de 843d 1f9c adbd
00000050: e27c a23b 1543 f5bd 4016 d2bc 1bda 283e
00000060: 8722 8d3e 95d1 463e f929 413d fce0 ec3d
00000070: 8d69 44bd 8afc 463e a533 14be 3e93 4c3e
00000080: 1479 24be ac22 803c 44e6 3bbe f03f ce3c
00000090: 2b47 5dbe d78e 3e3d e04c e23d 9eea b33d
000000a0: dc10 7fbc d1f8 edbd f344 01be 9673 5bbe
000000b0: 6cf1 823d 0b04 18bf 542d ef3d b127 91bd
000000c0: c6cb 0cbe c96a 80be c6bb a13d ac8c d5bd
000000d0: 6405 34be c1ff 763c 7b59 84be 6903 2cbe
000000e0: c3a5 3d3e d93d 13bd 2ea9 313e 4321 bcbd
000000f0: 733c 943e ea8a aabe c796 363d 45c3 b8bd

block2.bn.running_var f4 [64]
0.009333575 0.009776547 0.009028511 0.014051876 0.011310603 0.014370402 0.008773016 0.013340305
0.016161902 0.0125964 0.01610923 0.010792506 0.009313172 0.012780458 0.010302841 0.021541389
0.009525688 0.012834101 0.010992479 0.011648541 0.0066331574 0.014507857 0.01023646 0.008174464
0.0069007515 0.008231155 0.008699057 0.0086003225 0.009539679 0.016540697 0.009791838 0.009159673
0.016564531 0.011841108 0.01038625 0.007499994 0.01686675 0.013534609 0.012693483 0.0074666925
0.013691075 0.011213883 0.009484612 0.009677683 0.0077543617 0.0141340075 0.019780194 0.009991358
0.013526367 0.013702019 0.007668266 0.013465942 0.0068089426 0.0073117795 0.0063316585 0.011281162
0.0074236747 0.013615854 0.020293182 0.013403879 0.010773988 0.016427606 0.013902576 0.011074931
00000000: daeb 183c cf2d 203c 52ec 133c d739 663c
00000010: 1b50 393c d671 6b3c b2bc 0f3c 4b91 5a3c
00000020: f765 843c 2261 4e3c 81f7 833c 0dd3 303c
00000030: 4696 183c 2065 513c 3fcd 283c 9177 b03c
00000040: a211 1c3c 1f46 523c cc19 343c 86d9 3e3c
00000050: f55a d93b 5db2 6d3c d3b6 273c 30ee 053c
00000060: b31f e23b f7db 063c 7d86 0e3c 5ee8 0c3c
00000070: 504c 1c3c 5b80 873c f26d 203c 7412 163c
00000080: 57b2 873c 3501 423c 172b 2a3c 82c2 f53b
00000090: 232c 8a3c 44c0 5d3c 54f8 4f3c 28ab f43b
000000a0: 8850 603c 6fba 373c 5965 1b3c 258f 1e3c
000000b0: 4d18 fe3b 5392 673c 130a a23c cbb2 233c
000000c0: b29d 5d3c 6f7e 603c 1446 fb3b 41a0 5c3c
000000d0: 8d1d df3b a797 ef3b cd79 cf3b 9fd4 383c
000000e0: 4c42 f33b 0815 5f3c e33d a63c f19b 5b3c
000000f0: 6285 303c 3093 863c a1c7 633c a173 353c

trans2.0.conv.weight f4 [32, 64, 1, 1]
-0.047888394 -0.19855979 0.04615947 0.08163416 -0.038416766 -0.10155848 -0.088289924 0.01007344
-0.045045584 -0.13760588 0.034811225 -0.0020288578 0.09343796 -0.0002721977 0.04087195 0.08989599
-0.2034315 0.036492314 -0.12444496 0.11945919 0.041817416 -0.12698308 -0.07641896 0.014687705
-0.123622715 0.036413137 0.006040473 -0.024593797 0.054158356 0.011703846 -0.040891565 0.08249771
0.054288074 -0.060158912 -0.17787394 -0.26318675 -0.17496109 0.10900242 -0.04270436 0.0017689151
-0.0672144 -0.09264844 -0.15536372 0.0025239713 -0.028069586 0.12417611 -0.034155045 0.040760912
-0.048037425 -0.02461288 -0.06490709 -0.12278716 -0.050174348 0.10443986 -0.0627729 -0.021659954
-0.032645594 0.14475355 0.011155446 0.018175604 0.052622885 0.14430863 -0.37228146 -0.1803145
-0.08806564 0.027316954 0.7812494 0.06140612 -0.81336445 -0.07130244 0.011770145 -0.034025483
-0.07976812 -0.063352324 -0.08549366 -0.016160443 0.10214811 -0.06811202 -0.043469276 -0.050392494
-0.00083510415 0.026045477 0.057599764 -0.3030131 0.11220138 -0.070642374 -0.050171748 0.042178057
0.058824852 -0.040554427 -0.105672196 -0.060467076 -0.15214244 -0.068124406 0.018443594 0.018523397
-0.02352916 -0.0035509553 -0.1340972 -0.14437751 -0.13009958 0.009001933 0.0014395682 0.06606075
-0.16839175 0.017968016 -0.02884347 -0.028123058 -0.0064862957 -0.13676584 -0.12332363 -0.0053342893
0.123704165 0.103951484 -0.01973341 0.021060323 -0.113535315 -0.2672681 -0.083551064 -0.00083383924
0.09757585 -0.04964743 -0.072355434 -0.029030396 -0.01563929 -0.12841499 0.009609339 -0.017444016
0.1110647 -0.07714376 -0.16796887 -0.027727777 -0.028774116 0.050503276 -0.056694586 -0.1572826
-0.00089984667 0.104040384 -0.026686642 -0.046038907 0.11424732 0.09169777 0.04090532 0.11198567
-0.22922322 0.0748837 0.24918608 -0.039221495 0.049148455 0.020371452 -0.045738466 0.033847135
0.11575077 -0.0013159672 -0.10563154 -0.025231102 0.11415514 0.084096834 0.034615558 -0.140348
-0.11323012 0.08747438 -0.06758758 -0.07762337 0.11719406 -0.044471286 -0.013801464 -0.047563378
0.094941184 0.012081348 -0.25399715 -0.07687171 -0.03547212 0.043771658 0.26833025 -0.0058788853
-0.086168416 0.104467556 -0.014793363 0.16044338 -0.040563982 0.06624502 0.093674466 -0.02268632
-0.097545385 0.053156536 -0.03502743 0.054903205 -0.032303896 -0.042872164 -0.08613008 0.104261845
0.10695125 0.027178612 -0.04593563 -0.15021518 -0.09454658 0.13781679 0.045405935 -0.07003008
-0.038220882 -0.051543433 -0.22895183 -0.08004361 -0.004134072 -0.099967025 0.01077816 0.0015166607
-0.033083916 -0.12768354 -0.047260214 -0.14029782 0.14019945 0.010944247 -0.051873036 0.046167172
-0.11857217 -0.032344937 0.013509367 -0.14347474 0.13424651 -0.16017781 -0.0473672 -0.048363462
0.11268617 -0.17832837 -0.01480743 -0.04831003 -0.106493786 -0.055469554 -0.022068845 0.13023946
-0.0142249735 -0.07805437 0.04161889 -0.014672537 -0.04647698 0.06671442 0.116586536 0.018152276
0.05150137 0.09931302 0.12548642 0.11587872 0.025871929 -0.1226677 0.06287082 0.026539799
0.02374676 -0.023063827 -0.00018216847 0.020257875 -0.069704086 0.007826751 0.12058543 -0.11806913
00000000: 9f26 44bd 4253 4bbe b611 3d3d cf2f a73d
00000010: e65a 1dbd e4fd cfbd 59d1 b4bd 120b 253c
00000020: b881 38bd 8ee8 0cbe 3796 0e3d 96f6 04bb
00000030: 675c bf3d c2b5 8eb9 5969 273d 641b b83d
00000040: 5950 50be f778 153d 00dd febd 05a7 f43d
00000050: bd48 2b3d da07 02be 8b81 9cbd b3a4 703c
00000060: e82d fdbd f125 153d 29ef c53b ee78 c9bc
00000070: 27d5 5d3d 7dc1 3f3c ea7d 27bd 8ff4 a83d
00000080: 2c5d 5e3d 3169 76bd 9624 36be 6ac0 86be
00000090: 0029 33be a93c df3d c4ea 2ebd f1da e73a
000000a0: b4a7 89bd 77be bdbd ab17 1fbe 3669 253b
000000b0: 30f2 e5bc 0b50 fe3d 29e6 0bbd eaf4 263d
000000c0: e4c2 44bd f3a0 c9bc 02ee 84bd d677 fbbd
000000d0: 9e83 4dbd 91e4 d53d 148f 80bd 3770 b1bc
000000e0: 63b7 05bd 463a 143e 55c5 363c 01e5 943c
000000f0: 188b 573d a4c5 133e ad9b bebe 5da4 38be
00000100: c25b b4bd cec7 df3c f6ff 473f fc84 7b3d
00000110: a738 50bf 0307 92bd 91d7 403c 4e5e 0bbd
00000120: 785d a3bd ddbe 81bd 4d17 afbd e862 84bc
00000130: 0733 d13d 517e 8bbd d70c 32bd 5c68 4ebd
00000140: e4ea 5aba 535d d53c bbed 6b3d 8824 9bbe
00000150: d6c9 e53d f3ac 90bd e480 4dbd e6c2 2c3d
00000160: 54f2 703d 661c 26bd aa6a d8bd 53ac 77bd
00000170: 3acb 1bbe cf84 8bbd 0517 973c 61be 973c
00000180: 3ac0 c0bc 25b7 68bb c750 09be b3d7 13be
00000190: d338 05be d87c 133c e5af bc3a dc4a 873d
000001a0: e36e 2cbe a931 933c 2449 ecbc 5462 e6bc
000001b0: fe8a d4bb 580c 0cbe 1991 fcbd 43cb aebb
000001c0: 9c58 fd3d 84e4 d43d f6a7 a1bc b386 ac3c
000001d0: 3485 e8bd 5dd7 88be d21c abbd 0196 5aba
000001e0: d9d5 c73d 1b5b 4bbd 162f 94bd 27d1 edbc
000001f0: f81d 80bc 387f 03be 7d70 1d3c c1e6 8ebc
00000200: e475 e33d 8cfd 9dbd 0800 2cbe 5d25 e3bc
00000210: b2b7 ebbc 86dc 4e3d 9538 68bd b10e 21be
00000220: b0e3 6bba 2013 d53d f29d dabc 4b93 3cbd
00000230: 80fa e93d 0acc bb3d 568c 273d be58 e53d
00000240: 7eb9 6abe a05c 993d a32a 7f3e b8a6 20bd
00000250: e44f 493d 08e2 a63c 4258 3bbd 4ba3 0a3d
00000260: bd0e ed3d 887c acba 5955 d8bd 75b1 cebc
00000270: 2cca e93d f63a ac3d 0bc9 0d3d 63b7 0fbe
00000280: 31e5 e7bd c525 b33d 5b6b 8abd 00f9 9ebd
00000290: 7003 f03d 8627 36bd 891f 62bc d1d1 42bd
000002a0: 8670 c23d d9f0 453c ea0b 82be ea6e 9dbd
000002b0: 374b 11bd e949 333d 9562 893e aaa3 c0bb
000002c0: 1179 b0bd 16f3 d53d dd5f 72bc 454b 243e
000002d0: 6b26 26bd 78ab 873d 66d8 bf3d a9d8 b9bc
000002e0: e0c5 c7bd abba 593d ec78 0fbd 2fe2 603d
000002f0: 1751 04bd b99a 2fbd f864 b0bd 3c87 d53d
00000300: 4209 db3d aea5 de3c 0027 3cbd 02d2 19be
00000310: a3a1 c1bd d81f 0d3e 93fb 393d ee6b 8fbd
00000320: 808d 1cbd 351f 53bd 5972 6abe e7ed a3bd
00000330: 1c77 87bb 83bb ccbd e196 303c b0ca c63a
00000340: 0083 07bd 79bf 02be ed93 41bd 3baa 0fbe
00000350: 7290 0f3e 804f 333c d278 54bd ca19 3d3d
00000360: f7d5 f2bd 207c 04bd 6456 5d3c 0beb 12be
00000370: eb77 093e a705 24be 1c04 42bd c418 46bd
00000380: 02c8 e63d b69b 36be dd9a 72bc bde0 45bd
00000390: 6a19 dabd 0b34 63bd b9c9 b4bc 7e5d 053e
000003a0: dd0f 69bc f8da 9fbd 9278 2a3d 1565 70bc
000003b0: a55e 3ebd 92a1 883d ecc4 ee3d 15b4 943c
000003c0: 1af3 523d a064 cb3d 837f 003e d351 ed3d
000003d0: 5ef1 d33c 3439 fbbd 6bc2 803d fe69 d93c
000003e0: 9188 c23c 5af0 bcbc 7a04 3fb9 d8f3 a53c
000003f0: 04c1 8ebd c63b 003c 7ef5 f63d 3ace f1bd

trans2.0.bn.weight f4 [32]
0.97575927 0.91839033 0.9503035 0.8948617 0.89848095 0.9056371 1.0606809 0.8674702
0.803273 0.92023605 0.8304062 0.9313055 1.0245421 0.92970294 0.92262894 0.9632737
0.92660207 0.88376325 0.8582526 0.9892745 0.92506975 0.8203983 0.79725647 0.86451244
0.92427313 0.8864595 0.9906647 0.8914662 0.8496306 0.9201261 0.88847977 0.9048013
00000000: 5ccb 793f a11b 6b3f 1747 733f a815 653f
00000010: d902 663f d5d7 673f 64c4 873f 8712 5e3f
00000020: 4da3 4d3f 9794 6b3f 8095 543f 0a6a 6e3f
00000030: 3224 833f 0301 6e3f 6931 6c3f 1b99 763f
00000040: cb35 6d3f 4f3e 623f 71b6 5b3f 1841 7d3f
00000050: 5fd1 6c3f 9f05 523f 0019 4c3f b050 5d3f
00000060: 2a9d 6c3f 03ef 623f 349c 7d3f 2137 643f
00000070: 6481 593f 628d 6b3f 6973 633f 0fa1 673f

trans2.0.bn.bias f4 [32]
0.10072876 -0.09610397 0.019409405 -0.05626446 -0.16964169 -0.12470994 -0.23516431 -0.15416697
-0.08474955 -0.15262094 -0.21132919 0.007009531 -0.04808295 -0.0528836 -0.047454465 -0.1484123
-0.1775066 -0.2536962 -0.05459774 -0.21038635 -0.060083766 -0.05332565 0.021301553 -0.30576137
-0.055344153 -0.16404225 -0.08780596 -0.21345964 -0.18002886 -0.06526008 0.009634036 -0.1707023
00000000: e14a ce3d 29d2 c4bd 7900 9f3c 9075 66bd
00000010: 8db6 2dbe ed67 ffbd eace 70be f2dd 1dbe
00000020: 2c91 adbd aa48 1cbe ae66 58be 35b0 e53b
00000030: a1f2 44bd 799c 58bd 9d5f 42bd 65f9 17be
00000040: 4ac4 35be 78e4 81be e1a1 5fbd 856f 57be
00000050: 651a 76bd ff6b 5abd 9880 ae3c c18c 9cbe
00000060: 8db0 62bd b1fa 27be 9cd3 b3bd 2a95 5abe
00000070: 7c59 38be 14a7 85bd 13d8 1d3c 95cc 2ebe

trans2.0.bn.running_mean f4 [32]
-0.13761924 -0.13350405 0.038566023 -0.118454926 -0.025607748 0.0395143 -0.12795053 -0.029783035
0.044813238 -0.12411201 0.18097755 -0.059532963 -0.13293423 -0.172226 -0.032807633 0.019503774
-0.022112302 0.07425179 0.024455035 -0.08892368 -0.028283043 -0.085728996 -0.07567302 0.23043443
-0.11091409 -0.023104241 -0.12045503 -0.08144825 -0.028296484 0.065663084 0.013459826 0.07642666
00000000: 0fec 0cbe 49b5 08be 68f7 1d3d 7f98 f2bd
00000010: 57c7 d1bc bfd9 213d 7705 03be 8dfb f3bc
00000020: 168e 373d 702e febd 2e52 393e d6d8 73bd
00000030: e91f 08be 035c 30be 4c61 06bd 61c6 9f3c
00000040: dc24 b5bc 5311 983d ed55 c83c 9e1d b6bd
00000050: d7b1 e7bc af92 afbd 75fa 9abd 01f7 6b3e
00000060: ed26 e3bd 1b45 bdbc 20b1 f6bd 57ce a6bd
00000070: 07ce e7bc 5e7a 863d 9a86 5c3c 9585 9c3d

trans2.0.bn.running_var f4 [32]
0.0019533082 0.0012455627 0.0014022065 0.0015923734 0.0015240262 0.0009434991 0.003587841 0.0005835926
0.0008043379 0.003432987 0.0025668668 0.0018689292 0.0046435236 0.0015665834 0.0010326349 0.0008259606
0.0059731426 0.0018397244 0.0028717485 0.0076433015 0.0014497061 0.0014627287 0.0019643172 0.0011401756
0.0019372151 0.0036404552 0.0017900028 0.0011781777 0.00083793927 0.0031692332 0.0024569305 0.0015858577
00000000: 1303 003b 2642 a33a 3eca b73a 2fb7 d03a
00000010: d5c1 c73a 2755 773a fc21 6b3b 3dfc 183a
00000020: 34da 523a f7fb 603b e138 283b dcf6 f43a
00000030: b328 983b d155 cd3a 7a59 873a 4785 583a
00000040: 5aba c33b e822 f13a f233 3c3b a974 fa3b
00000050: 1104 be3a 08b9 bf3a c6bb 003b f271 953a
00000060: 27ea fd3a b494 6e3b 879e ea3a 156d 9a3a
00000070: 27a9 5b3a e9b2 4f3b 7404 213b 8edc cf3a

trans2.1.conv.weight f4 [32, 64, 1, 1]
0.16824935 0.053390328 0.12450379 -0.06017522 -0.0019808616 -0.16168152 0.002517376 -0.14988507
-0.0862183 -0.13867112 0.02461273 -0.15099755 0.1954988 -0.06324651 -0.07046009 -0.022983126
0.07430876 0.09484911 -0.013590428 0.012482376 0.05517962 0.007377329 -0.027088083 0.10036979
-0.010339966 0.1032475 0.099499814 0.08644287 -0.14715117 -0.108147874 0.042866543 -0.03295724
-0.13575427 0.06526378 0.044441063 -0.043141138 0.004062457 0.16504307 -0.047950048 0.15754649
0.022644034 -0.16545731 -0.14039081 0.077645816 0.023329154 -0.044972263 -0.010883044 -0.062260125
-0.11110964 -0.17761448 0.096165285 -0.122531265 0.10962027 0.08851939 -0.075761914 0.08004958
0.07087274 0.1117326 0.054426685 -0.05632621 0.016177664 -0.12554201 -0.06888064 -0.020840203
0.06151695 0.087253824 0.0007246051 0.09432826 0.20899624 -0.0960948 -0.037502714 0.1373129
0.057200853 0.0068012066 -0.020906638 -0.09289217 -0.043996118 0.009595419 0.10901125 -0.010395241
-0.05050283 0.09628399 0.01627518 -0.054305464 0.05655589 0.013969932 -0.14814885 -0.02862262
0.0425298 0.10011662 -0.144475 -0.011033322 -0.07199322 -0.010097938 -0.04190987 -0.14924951
0.049048133 -0.018904483 0.020334156 0.053678907 -0.1889518 -0.04181449 0.009914841 0.07278493
0.007863487 0.087084554 0.034641467 0.101139605 -0.06709662 -0.010821041 0.025409937 -0.16285838
0.10227099 -0.02982565 -0.041562807 -0.037658244 -0.1138951 0.11023233 -0.036718607 0.008111765
-0.12924576 -0.23491907 -0.029111663 0.020221898 0.012499396 -0.07333091 0.09235335 0.15379491
-0.24847367 -0.058628045 0.0910866 -0.049583353 0.005031766 0.031658843 0.13019587 0.09999401
0.09945006 -0.095752664 -0.020851497 0.07800183 -0.03108555 -0.13235195 0.0077333185 -0.011945931
-0.06922948 -0.1146672 0.008977542 0.026379995 -0.016538557 0.1145172 0.0137738185 -0.05617427
-0.10648302 -0.13314173 0.03344345 0.033751212 0.08800008 0.09148843 -0.010632035 0.016600166
-0.08224567 0.038099878 0.010975904 0.12240015 -0.118718065 -0.0034238473 -0.14025488 0.011794335
0.037935097 -0.10303036 0.040853832 -0.10793087 0.08347249 0.07314045 -0.050277963 0.0646793
0.03316466 0.019832386 -0.025149653 -0.042522166 0.10258109 -0.06572093 0.0974108 0.060550377
0.041376002 -0.14099707 0.022271201 -0.07703334 -0.12051096 0.059559513 -0.024758728 0.07088385
-0.015500508 0.04103712 -0.08983762 -0.06563125 0.08665124 -0.074023664 -0.057824876 -0.008938652
-0.036072016 -0.09273053 0.021501716 -0.13425384 0.04432355 0.028888155 0.025087956 0.08377366
-0.02830974 -0.121143036 -0.13538107 0.0035638055 0.16924612 -0.086308576 -0.081468046 -0.12561259
-0.084939316 -0.0008506572 0.06924075 -0.10176175 -0.19321823 -0.060042396 0.107459314 -0.12438471
-0.05051991 -0.06333466 -0.10006556 0.112860925 0.009726477 -0.008514354 -0.050090123 0.08129897
0.013446604 -0.12167295 -0.14501898 -0.07038993 0.114858046 -0.13106115 0.044639137 -0.117826566
0.08622516 -0.054334007 -0.065909185 0.06434454 0.13209087 0.12757526 0.057858467 -0.016768089
0.042930786 0.04069376 0.031860005 0.010990433 -0.1281582 -0.04087707 0.032142945 -0.1852782
00000000: 8f49 2c3e d1af 5a3d d8fb fe3d 4b7a 76bd
00000010: 58d1 01bb d78f 25be 90fa 243b 797b 19be
00000020: 3893 b0bd cdff 0dbe a3a0 c93c 1a9f 1abe
00000030: d630 483e 6387 81bd 614d 90bd 1c47 bcbc
00000040: 312f 983d 4040 c23d 63aa 5ebc e182 4c3c
00000050: 0604 623d 85bd f13b d4e7 ddbc ad8e cd3d
00000060: f668 29bc 6d73 d33d 8fc6 cb3d f608 b13d
00000070: ccae 16be a27c ddbd d494 2f3d 2cfe 06bd
00000080: 2b03 0bbe 04a9 853d d507 363d c3b4 30bd
00000090: 5c1e 853b 0d01 293e 4567 44bd de53 213e
000000a0: fb7f b93c a46d 29be 9cc2 0fbe c504 9f3d
000000b0: c81c bf3c d634 38bd cc4e 32bc 7904 7fbd
000000c0: 738d e3bd 92e0 35be 4ef2 c43d acf1 fabd
000000d0: 9880 e03d a749 b53d 1029 9bbd 09f1 a33d
000000e0: ba25 913d 10d4 e43d 84ee 5e3d 50b6 66bd
000000f0: 0587 843c 168e 00be 4b11 8dbd 13b9 aabc
00000100: 33f9 7b3d 22b2 b23d 6df3 3d3a 2d2f c13d
00000110: 1c03 563e 5acd c4bd 729c 19bd c19b 0c3e
00000120: 714b 6a3d a8dc de3b 6644 abbc 403e bebd
00000130: 4635 34bd 1b36 1d3c 4a41 df3d cd50 2abc
00000140: 0edc 4ebd 8a30 c53d 8753 853c 686f 5ebd
00000150: 26a7 673d 24e2 643c 55b4 17be fc79 eabc
00000160: ba33 2e3d f109 cd3d 41f1 13be 1bc5 34bc
00000170: 2e71 93bd d271 25bc afa9 2bbd ddd4 18be
00000180: b2e6 483d 93dd 9abc d193 a63c 6ade 5b3d
00000190: 957c 41be ac45 2bbd db71 223c 4410 953d
000001a0: dbd5 003c 6359 b23d 36e4 0d3d 4822 cf3d
000001b0: f469 89bd bc4a 31bc 8028 d03c 59c4 26be
000001c0: 7473 d13d ec54 f4bc c33d 2abd 883f 1abd
000001d0: d641 e9bd 7dc1 e13d 4066 16bd 35e7 043c
000001e0: 0059 04be a08e 70be 957b eebc 65a8 a53c
000001f0: 44ca 4c3c 842e 96bd c123 bd3d 6a7c 1d3e
00000200: e26f 7ebe f623 70bd 9d8b ba3d ea17 4bbd
00000210: 83e1 a43b b4ac 013d 1152 053e a9c9 cc3d
00000220: 79ac cb3d f919 c4bd c2d0 aabc 6cbf 9f3d
00000230: 20a7 febc 4587 07be c767 fd3b deb8 43bc
00000240: 30c8 8dbd a3d6 eabd 8a16 133c dc1a d83c
00000250: de7b 87bc fe87 ea3d 95ab 613c fe16 66bd
00000260: c513 dabd 4e56 08be 00fc 083d b63e 0a3d
00000270: 6339 b43d 495e bb3d fd31 2ebc 12fd 873c
00000280: 6b70 a8bd 9e0e 1c3d 47d4 333c eeac fa3d
00000290: 7522 f3bd a062 60bb fa9e 0fbe 073d 413c
000002a0: d561 1b3d 9501 d3bd 5956 273d dc0a ddbd
000002b0: a0f3 aa3d a9ca 953d 44f0 4dbd 9576 843d
000002c0: abd7 073d 8777 a23c a506 cebc b92b 2ebd
000002d0: 0916 d23d b298 86bd 507f c73d ac03 783d
000002e0: e279 293d 8961 10be 1872 b63c a8c3 9dbd
000002f0: 73ce f6bd adf4 733d d1d2 cabc 8d2b 913d
00000300: d8f5 7dbc 8a16 283d c9fc b7bd ad69 86bd
00000310: 3576 b13d b899 97bd c7d9 6cbd 6d73 12bc
00000320: 40c0 13bd 81e9 bdbd 5e24 b03c d779 09be
00000330: 9c8c 353d daa6 ec3c 4285 cd3c 8691 ab3d
00000340: d4e9 e7bc d719 f8bd 56a1 0abe bc8e 693b
00000350: db4e 2d3e 8dc2 b0bd b8d8 a6bd 96a0 00be
00000360: aaf4 adbd a3fe 5eba 18ce 8d3d 7768 d0bd
00000370: 00db 45be 04ef 75bd a113 dc3d 69bd febd
00000380: f7ed 4ebd 9ab5 81bd 2cef ccbd a123 e73d
00000390: cd5b 1f3c ca7f 0bbc 4d2b 4dbd 1380 a63d
000003a0: 254f 5c3c ab2f f9bd db7f 14be 9828 90bd
000003b0: b23a eb3d e534 06be 87d7 363d 0e4f f1bd
000003c0: d196 b03d 568d 5ebd 65fb 86bd 12c7 833d
000003d0: d442 073e 17a3 023e 00fd 6c3d 3b5d 89bc
000003e0: 31d8 2f3d 80ae 263d a37f 023d 3811 343c
000003f0: e73b 03be b76e 27bd 52a8 033d 92b9 3dbe

trans2.1.bn.weight f4 [32]
1.0365099 1.0340037 1.0289546 1.0747701 1.0440044 1.1302931 1.0586795 1.0978299
1.1004819 0.98568624 1.0127262 1.0893008 0.9834823 1.092162 1.0816355 0.95363265
1.12355 1.02303 1.0573345 1.0689594 0.9930589 1.0809318 1.1638418 0.9973395
1.1147054 1.0569258 1.2303758 1.0263631 1.1818931 1.0089583 1.0042025 1.1192098
00000000: 5bac 843f 3c5a 843f c9b4 833f 1192 893f
00000010: f0a1 853f 72ad 903f cf82 873f b185 8c3f
00000020: 97dc 8c3f ef55 7c3f 03a1 813f 356e 8b3f
00000030: 7fc5 7b3f f7cb 8b3f 0873 8a3f 4521 743f
00000040: 7dd0 8f3f a6f2 823f bd56 873f a9d3 883f
00000050: 1c39 7e3f f95b 8a3f c5f8 943f a451 7f3f
00000060: abae 8e3f 5849 873f f47c 9d3f de5f 833f
00000070: 4648 973f 8c25 813f b589 803f 4442 8f3f

trans2.1.bn.bias f4 [32]
0.05643854 0.06507762 -0.049010813 0.017921096 -0.05721778 0.0024483916 0.0391369 -0.0963822
-0.0067521525 0.034596287 0.019283034 0.07394694 0.16424988 -0.07267587 0.006365878 0.09877624
-0.1206505 -0.036128826 -0.00070066215 -0.13899367 0.093968615 0.12017112 0.00272002 0.05156668
0.12681343 0.007990895 -0.06255636 0.23730358 0.026911758 -0.071737304 -0.06643701 0.20742466
00000000: 192c 673d 6a47 853d 90bf 48bd 43cf 923c
00000010: 315d 6abd 3275 203b 044e 203d 0864 c5bd
00000020: 2941 ddbb d6b4 0d3d 74f7 9d3c 7e71 973d
00000030: 1f31 283e 16d7 94bd db98 d03b 334b ca3d
00000040: 9c17 f7bd d2fb 13bd a4ac 37ba 5b54 0ebe
00000050: 9e72 c03d 471c f63d 5d42 323b 9537 533d
00000060: 61db 013e 3eec 023c 8d1d 80bd b6ff 723e
00000070: 0c76 dc3c 02eb 92bd 2110 88bd 2167 543e

trans2.1.bn.running_mean f4 [32]
-0.12396682 0.0196559 -0.08465201 -0.5224942 -0.119527094 -0.19292387 -0.15035093 -0.44041947
-0.13440642 -0.23487173 0.18596126 -0.044225227 -0.38168332 0.028113179 -0.21502434 0.25648156
-0.07926591 0.22574918 -0.18451619 -0.060457982 0.015699605 -0.1536134 -0.41267812 0.048699383
-0.29228458 -0.13438499 -0.76310223 0.025335953 -0.28377938 0.13308096 -0.08437097 0.018270778
00000000: 51e2 fdbd 6905 a13c 085e adbd 2ec2 05bf
00000010: 9fca f4bd d68d 45be 98f5 19be a97e e1be
00000020: d6a1 09be 3782 70be a16c 3e3e 8325 35bd
00000030: ff6b c3be 9c4d e63c 572f 5cbe 8d51 833e
00000040: 2a56 a2bd cb2a 673e d0f1 3cbe caa2 77bd
00000050: 759c 803c d54c 1dbe 8c4a d3be 0179 473d
00000060: 53a6 95be 389c 09be ab5a 43bf 588d cf3c
00000070: 884b 91be 6046 083e b0ca acbd 99ac 953c

trans2.1.bn.running_var f4 [32]
0.12614857 0.105799876 0.16669185 0.16762698 0.16674985 0.15589663 0.20809688 0.19735679
0.13701424 0.12858935 0.124825254 0.13568562 0.12813418 0.14183995 0.21843374 0.11394043
0.22314586 0.18351291 0.12533352 0.09979033 0.112937585 0.19221506 0.20453553 0.15602623
0.1721895 0.120544046 0.21862774 0.12533876 0.18741389 0.15813702 0.1659496 0.22071083
00000000: 172d 013e 9bad d83d 45b1 2a3e 68a6 2b3e
00000010: 79c0 2a3e 5ea3 1f3e 5917 553e e617 4a3e
00000020: 764d 0c3e edac 033e 62a4 ff3d 2cf1 0a3e
00000030: 9b35 033e 7e3e 113e 18ad 5f3e 9a59 e93d
00000040: 5980 643e cfea 3b3e 6e57 003e df5e cc3d
00000050: d24b e73d 06d4 443e c371 513e 57c5 1f3e
00000060: 7252 303e ccdf f63d f3df 5f3e ce58 003e
00000070: 6de9 3f3e acee 213e b1ee 293e 0502 623e

block3.conv.weight f4 [32, 64, 3, 3]
-0.13078928 0.0016203859 0.047141835 -0.033457804 -0.019750025 -0.005913991 -0.010641644 -0.0009243554
-0.08685669 -0.0108917225 -0.0013448973 0.055110607 0.05956377 0.08489635 0.051245205 0.035252176
-0.03178988 0.019323815 0.10828518 0.10907811 0.04230776 0.04306287 -0.011093647 -0.0017641126
-0.037582133 0.011725486 0.04295628 0.0067271073 -0.045902833 -0.044483703 0.015578771 -0.06456451
-0.025726667 -0.020288568 -0.03588694 0.04376819 0.019355841 0.06396697 -0.011592104 0.032687116
-0.03327134 0.013009616 0.061859302 0.10434834 0.01650646 0.017644497 -0.0637983 0.008575614
0.01149393 0.009410364 -0.017896267 -0.009724134 -0.023198105 0.025624419 -0.044131506 -0.006218781
-0.018934041 0.14661099 0.029758828 0.014783264 -0.0012534426 0.02600789 -0.05345116 -0.0019781955
0.05770132 0.03999481 -0.00032186016 0.02044614 0.043979224 0.045502685 -0.015608317 -0.024993746
0.036759183 -0.012807299 -0.07129624 0.0045868675 0.04384018 -0.030990751 0.0022222188 0.03653578
-0.030793041 0.04586404 0.06626687 -0.0048399447 -0.008272629 -0.14445944 -0.12454757 -0.07711979
-0.009063259 -0.121733986 0.00037496572 -0.015928444 0.041586436 0.040054172 0.0075008385 0.07889112
0.05318409 -0.016425267 0.09293766 -0.059364267 -0.007126018 0.09272444 0.041170336 0.015160514
0.10214763 -0.020025348 -0.02519109 -0.012058861 -0.020048479 0.08739033 0.047807485 0.035244912
-0.037797388 0.08783738 -0.028514815 -0.012571225 -0.099768884 0.0036659834 0.035694744 -0.07499466
0.01074769 0.02065222 0.030399472 -0.061524343 0.109492056 0.037136603 0.013995303 -0.02796615
0.015842032 -0.0287465 0.011229151 0.016876655 -0.045029722 -0.070606336 0.011065605 0.012638408
0.065351926 0.06806198 0.07364874 -0.0032843573 -0.043750454 0.051987376 -0.06723439 -0.068861976
-0.039778005 0.020948932 -0.02559947 -0.06076035 -0.10916553 -0.04631057 -0.023767263 -0.005058054
-0.10101433 -0.02804956 -0.020756839 -0.016358452 -0.0043941084 -0.042747986 0.0048836847 0.02664729
0.051511154 0.10947531 -0.067816295 0.0050282474 -0.04414191 -0.042637218 -0.009086093 0.0016067813
0.012153556 -0.037778456 -0.051861458 0.0570181 0.17031144 0.052727003 -0.051503748 -0.0075168614
-0.016770508 -0.0108023565 -0.17394689 -0.016822668 -0.035181876 0.049892757 0.009692509 -0.00045141572
0.013505657 0.004590023 -0.02751762 0.07088734 0.022574328 0.0037247243 -0.0618109 -0.0052566943
-0.0007774536 -0.052077364 -0.09582076 -0.03669078 0.04569557 0.031152694 0.028364241 -0.05303964
0.017845651 0.11612932 0.0097486 -0.01579647 0.008593864 0.035673577 0.048228722 -0.038599517
0.03152955 0.07231979 -0.057768084 -0.14665462 -0.08024097 -4.346416e-05 -0.21742015 -0.01178871
0.03729146 0.08945696 -0.028189719 0.10037414 0.0064515052 0.07641319 0.0019105113 -0.022289319
-0.022728948 0.0070550707 0.06452914 -0.017511511 0.06482661 -0.02003548 -0.01835475 -0.038486652
-0.054238625 0.0060494677 -0.10740318 0.081720784 0.14059578 0.019703703 0.010263535 0.084352165
0.07736071 -0.00737901 0.0038068243 0.02103067 0.07627303 0.0063073253 0.06176841 -0.020887347
0.0015291746 0.0043300237 -0.031083453 -0.105489016 -0.037608016 -0.049854394 -0.032631367 0.033677004
00000000: a0ed 05be 2163 d43a cc17 413d 0d0b 09bd
00000010: ceca a1bc 27ca c1bb 4a5a 2ebc 7150 72ba
00000020: ece1 b1bd 3273 32bc 4447 b0ba a9bb 613d
00000030: 24f9 733d 23de ad3d 7ee6 513d 9664 103d
00000040: 1b36 02bd fa4c 9e3c 9fc4 dd3d 5864 df3d
00000050: e74a 2d3d b162 303d 21c2 35bc cc39 e7ba
00000060: b9ef 19bd 411c 403c edf2 2f3d 116f dc3b
00000070: 9c04 3cbd 8b34 36bd 1a3e 7f3c 663a 84bd
00000080: bbc0 d2bc 3634 a6bc 2ffe 12bd 4646 333d
00000090: 2490 9e3c 1d01 833d cfec 3dbc ede2 053d
000000a0: 8747 08bd 4926 553c 2e60 7d3d 95b4 d53d
000000b0: 8e38 873c 318b 903c afa8 82bd bb80 0c3c
000000c0: 0951 3c3c ed2d 1a3c 319b 92bc f951 1fbc
000000d0: f409 bebc 4dea d13c 3dc3 34bd ebc6 cbbb
000000e0: 901b 9bbc 3121 163e c9c8 f33c 8135 723c
000000f0: 8e4a a4ba 800e d53c 9bef 5abd 9da4 01bb
00000100: 3858 6c3d 99d1 233d 57bf a8b9 aa7e a73c
00000110: 8f23 343d 0661 3a3d 07ba 7fbc afbf ccbc
00000120: cc90 163d b5d5 51bc c303 92bd 6f4d 963b
00000130: c391 333d 51e0 fdbc a5a2 113b 8ba6 153d
00000140: b041 fcbc eedb 3b3d edb6 873d 6698 9ebb
00000150: ec89 07bc 2ded 13be cc12 ffbd fbf0 9dbd
00000160: 107e 14bc ab4f f9bd 0c97 c439 5e7c 82bc
00000170: 8a56 2a3d d80f 243d 98c9 f53b ab91 a13d
00000180: 8fd7 593d 488e 86bc 1a56 be3d f227 73bd
00000190: 5f81 e9bb 50e6 bd3d 3aa2 283d ce63 783c
000001a0: c732 d13d 330c a4bc 8b5d cebc 8792 45bc
000001b0: b53c a4bc b4f9 b23d c8d1 433d f85c 103d
000001c0: 6fd1 1abd 16e4 b33d e797 e9bc 8af7 4dbc
000001d0: a153 ccbd ff40 703b a734 123d cd96 99bd
000001e0: 1417 303c d82e a93c 5008 f93c f300 7cbd
000001f0: 5f3d e03d 8d1c 183d 8e4c 653c 4419 e5bc
00000200: 26c7 813c c87d ebbc 79fa 373c e940 8a3c
00000210: 1671 38bd 0e9a 90bd 834c 353c 5311 4f3c
00000220: 3bd7 853d 1464 8b3d 27d5 963d 5f3e 57bb
00000230: ad33 33bd b7f0 543d 2fb2 89bd 8207 8dbd
00000240: 43ee 22bd 189d ab3c fbb5 d1bc d8df 78bd
00000250: 2d92 dfbd 27b0 3dbd 90b3 c2bc 08be a5bb
00000260: 9ae0 cebd 31c8 e5bc 3f0a aabc 2902 86bc
00000270: 74fc 8fbb 8318 2fbd 5107 a03b 6b4b da3c
00000280: 5cfd 523d 9734 e03d 45e3 8abd ffc3 a43b
00000290: 26ce 34bd 5da4 2ebd d6dd 14bc a29a d23a
000002a0: b51f 473c 95bd 1abd ae6c 54bd d08b 693d
000002b0: 1f66 2e3e 45f8 573d 98f5 52bd 0150 f6bb
000002c0: 4e62 89bc 5efc 30bc 221f 32be b1cf 89bc
000002d0: df1a 10bd 595c 4c3d 54cd 1e3c feab ecb9
000002e0: d546 5d3c e767 963b a26c e1bc 622d 913d
000002f0: cced b83c 811a 743b 6d2d 7dbd 5940 acbb
00000300: 07ce 4bba 134f 55bd ad3d c4bd 1249 16bd
00000310: 472b 3b3d ef33 ff3c 205c e83c 1840 59bd
00000320: 0b31 923c 35d5 ed3d 98b8 1f3c 9967 81bc
00000330: 47cd 0c3c 751e 123d 7b8b 453d 871a 1ebd
00000340: 2125 013d 661c 943d 3a9e 6cbd a12c 16be
00000350: 6155 a4bd 494d 36b8 63a3 5ebe 6f25 41bc
00000360: eebe 183d 3635 b73d 20ee e6bc f590 cd3d
00000370: 2667 d33b 857e 9c3d 1f6a fa3a 1798 b6bc
00000380: 0f32 babc 392e e73b db27 843d 4d74 8fbc
00000390: d0c3 843d 7221 a4bc b35c 96bc 2ea4 1dbd
000003a0: 5229 5ebd 9d3a c63b 33f6 dbbd 3a5d a73d
000003b0: 57f8 0f3e a969 a13c 6328 283c d4c0 ac3d
000003c0: 4b6f 9e3d 9fcb f1bb ea7b 793b 8348 ac3c
000003d0: 0935 9c3d aead ce3b df00 7d3d f11b abbc
000003e0: 966e c83a dfe2 8d3b baa2 febc a00a d8bd
000003f0: dd0a 1abd 1f34 4cbd 78a8 05bd e6f0 093d
